…
memory_limit: 268435456
locality {
}
incarnation: 12265967763864185392
, name: "/gpu:0"
device_type: "GPU"
memory_limit: 12070502400
locality {
  bus_id: 2
}
incarnation: 6588581880268715447
physical_device_desc: "device: 0, name: Tesla K80, pci bus id: 0000:83:00.0"
]
Validation_count:  2880
Validation data shape:  (2880, 1024, 64, 1)
Validation labels shape:  (2880, 1024, 2, 1)
_________________________________________________________________
Layer (type)                 Output Shape              Param #   
=================================================================
conv2d_1 (Conv2D)            (None, 1024, 64, 64)      640       
_________________________________________________________________
batch_normalization_1 (Batch (None, 1024, 64, 64)      256       
_________________________________________________________________
dropout_1 (Dropout)          (None, 1024, 64, 64)      0         
_________________________________________________________________
conv2d_2 (Conv2D)            (None, 1024, 64, 64)      36928     
_________________________________________________________________
batch_normalization_2 (Batch (None, 1024, 64, 64)      256       
_________________________________________________________________
dropout_2 (Dropout)          (None, 1024, 64, 64)      0         
_________________________________________________________________
conv2d_3 (Conv2D)            (None, 1024, 64, 64)      36928     
_________________________________________________________________
batch_normalization_3 (Batch (None, 1024, 64, 64)      256       
_________________________________________________________________
dropout_3 (Dropout)          (None, 1024, 64, 64)      0         
_________________________________________________________________
conv2d_4 (Conv2D)            (None, 1024, 64, 64)      36928     
_________________________________________________________________
batch_normalization_4 (Batch (None, 1024, 64, 64)      256       
_________________________________________________________________
dropout_4 (Dropout)          (None, 1024, 64, 64)      0         
_________________________________________________________________
conv2d_5 (Conv2D)            (None, 1024, 32, 128)     73856     
_________________________________________________________________
batch_normalization_5 (Batch (None, 1024, 32, 128)     512       
_________________________________________________________________
dropout_5 (Dropout)          (None, 1024, 32, 128)     0         
_________________________________________________________________
conv2d_6 (Conv2D)            (None, 1024, 32, 128)     147584    
_________________________________________________________________
batch_normalization_6 (Batch (None, 1024, 32, 128)     512       
_________________________________________________________________
dropout_6 (Dropout)          (None, 1024, 32, 128)     0         
_________________________________________________________________
conv2d_7 (Conv2D)            (None, 1024, 32, 128)     147584    
_________________________________________________________________
batch_normalization_7 (Batch (None, 1024, 32, 128)     512       
_________________________________________________________________
dropout_7 (Dropout)          (None, 1024, 32, 128)     0         
_________________________________________________________________
conv2d_8 (Conv2D)            (None, 1024, 32, 128)     147584    
_________________________________________________________________
batch_normalization_8 (Batch (None, 1024, 32, 128)     512       
_________________________________________________________________
dropout_8 (Dropout)          (None, 1024, 32, 128)     0         
_________________________________________________________________
conv2d_9 (Conv2D)            (None, 1024, 16, 256)     295168    
_________________________________________________________________
batch_normalization_9 (Batch (None, 1024, 16, 256)     1024      
_________________________________________________________________
dropout_9 (Dropout)          (None, 1024, 16, 256)     0         
_________________________________________________________________
conv2d_10 (Conv2D)           (None, 1024, 16, 256)     590080    
_________________________________________________________________
batch_normalization_10 (Batc (None, 1024, 16, 256)     1024      
_________________________________________________________________
dropout_10 (Dropout)         (None, 1024, 16, 256)     0         
_________________________________________________________________
conv2d_11 (Conv2D)           (None, 1024, 8, 256)      590080    
_________________________________________________________________
batch_normalization_11 (Batc (None, 1024, 8, 256)      1024      
_________________________________________________________________
dropout_11 (Dropout)         (None, 1024, 8, 256)      0         
_________________________________________________________________
conv2d_12 (Conv2D)           (None, 1024, 8, 256)      590080    
_________________________________________________________________
batch_normalization_12 (Batc (None, 1024, 8, 256)      1024      
_________________________________________________________________
dropout_12 (Dropout)         (None, 1024, 8, 256)      0         
_________________________________________________________________
conv2d_13 (Conv2D)           (None, 1024, 4, 512)      1180160   
_________________________________________________________________
batch_normalization_13 (Batc (None, 1024, 4, 512)      2048      
_________________________________________________________________
dropout_13 (Dropout)         (None, 1024, 4, 512)      0         
_________________________________________________________________
conv2d_14 (Conv2D)           (None, 1024, 4, 512)      2359808   
_________________________________________________________________
batch_normalization_14 (Batc (None, 1024, 4, 512)      2048      
_________________________________________________________________
dropout_14 (Dropout)         (None, 1024, 4, 512)      0         
_________________________________________________________________
conv2d_15 (Conv2D)           (None, 1024, 2, 512)      2359808   
_________________________________________________________________
batch_normalization_15 (Batc (None, 1024, 2, 512)      2048      
_________________________________________________________________
dropout_15 (Dropout)         (None, 1024, 2, 512)      0         
_________________________________________________________________
conv2d_16 (Conv2D)           (None, 1024, 2, 512)      2359808   
_________________________________________________________________
batch_normalization_16 (Batc (None, 1024, 2, 512)      2048      
_________________________________________________________________
dropout_16 (Dropout)         (None, 1024, 2, 512)      0         
_________________________________________________________________
conv2d_17 (Conv2D)           (None, 1024, 2, 1)        4609      
=================================================================
Total params: 10,972,993
Trainable params: 10,965,313
Non-trainable params: 7,680
_________________________________________________________________
alpha set, Training count : 0.4 , 9920
Epoch 1/1

   8/9920 [..............................] - ETA: 7:30:48 - loss: 1.0705
  16/9920 [..............................] - ETA: 4:21:45 - loss: 3.0313
…
