…
memory_limit: 268435456
locality {
}
incarnation: 1994363468618307664
, name: "/gpu:0"
device_type: "GPU"
memory_limit: 12058424116
locality {
  bus_id: 2
}
incarnation: 5443958286682727696
physical_device_desc: "device: 0, name: Tesla K80, pci bus id: 0000:83:00.0"
]
Validation_count:  2880
Validation data shape:  (2880, 1024, 64, 1)
Validation labels shape:  (2880, 1024, 2, 1)
_________________________________________________________________
Layer (type)                 Output Shape              Param #   
=================================================================
conv2d_1 (Conv2D)            (None, 1024, 64, 64)      640       
_________________________________________________________________
batch_normalization_1 (Batch (None, 1024, 64, 64)      256       
_________________________________________________________________
dropout_1 (Dropout)          (None, 1024, 64, 64)      0         
_________________________________________________________________
conv2d_2 (Conv2D)            (None, 1024, 64, 64)      36928     
_________________________________________________________________
batch_normalization_2 (Batch (None, 1024, 64, 64)      256       
_________________________________________________________________
dropout_2 (Dropout)          (None, 1024, 64, 64)      0         
_________________________________________________________________
conv2d_3 (Conv2D)            (None, 1024, 64, 64)      36928     
_________________________________________________________________
batch_normalization_3 (Batch (None, 1024, 64, 64)      256       
_________________________________________________________________
dropout_3 (Dropout)          (None, 1024, 64, 64)      0         
_________________________________________________________________
conv2d_4 (Conv2D)            (None, 1024, 64, 64)      36928     
_________________________________________________________________
batch_normalization_4 (Batch (None, 1024, 64, 64)      256       
_________________________________________________________________
dropout_4 (Dropout)          (None, 1024, 64, 64)      0         
_________________________________________________________________
conv2d_5 (Conv2D)            (None, 1024, 64, 64)      12352     
_________________________________________________________________
batch_normalization_5 (Batch (None, 1024, 64, 64)      256       
_________________________________________________________________
dropout_5 (Dropout)          (None, 1024, 64, 64)      0         
_________________________________________________________________
conv2d_6 (Conv2D)            (None, 1024, 64, 64)      12352     
_________________________________________________________________
batch_normalization_6 (Batch (None, 1024, 64, 64)      256       
_________________________________________________________________
dropout_6 (Dropout)          (None, 1024, 64, 64)      0         
_________________________________________________________________
conv2d_7 (Conv2D)            (None, 1024, 64, 64)      12352     
_________________________________________________________________
batch_normalization_7 (Batch (None, 1024, 64, 64)      256       
_________________________________________________________________
dropout_7 (Dropout)          (None, 1024, 64, 64)      0         
_________________________________________________________________
conv2d_8 (Conv2D)            (None, 1024, 64, 64)      12352     
_________________________________________________________________
batch_normalization_8 (Batch (None, 1024, 64, 64)      256       
_________________________________________________________________
dropout_8 (Dropout)          (None, 1024, 64, 64)      0         
_________________________________________________________________
conv2d_9 (Conv2D)            (None, 1024, 62, 64)      12352     
_________________________________________________________________
batch_normalization_9 (Batch (None, 1024, 62, 64)      256       
_________________________________________________________________
dropout_9 (Dropout)          (None, 1024, 62, 64)      0         
_________________________________________________________________
conv2d_10 (Conv2D)           (None, 1024, 60, 64)      12352     
_________________________________________________________________
batch_normalization_10 (Batc (None, 1024, 60, 64)      256       
_________________________________________________________________
dropout_10 (Dropout)         (None, 1024, 60, 64)      0         
_________________________________________________________________
conv2d_11 (Conv2D)           (None, 1024, 58, 64)      12352     
_________________________________________________________________
batch_normalization_11 (Batc (None, 1024, 58, 64)      256       
_________________________________________________________________
dropout_11 (Dropout)         (None, 1024, 58, 64)      0         
_________________________________________________________________
conv2d_12 (Conv2D)           (None, 1024, 56, 64)      12352     
_________________________________________________________________
batch_normalization_12 (Batc (None, 1024, 56, 64)      256       
_________________________________________________________________
dropout_12 (Dropout)         (None, 1024, 56, 64)      0         
_________________________________________________________________
conv2d_13 (Conv2D)           (None, 1024, 28, 64)      12352     
_________________________________________________________________
batch_normalization_13 (Batc (None, 1024, 28, 64)      256       
_________________________________________________________________
dropout_13 (Dropout)         (None, 1024, 28, 64)      0         
_________________________________________________________________
conv2d_14 (Conv2D)           (None, 1024, 14, 64)      12352     
_________________________________________________________________
batch_normalization_14 (Batc (None, 1024, 14, 64)      256       
_________________________________________________________________
dropout_14 (Dropout)         (None, 1024, 14, 64)      0         
_________________________________________________________________
conv2d_15 (Conv2D)           (None, 1024, 6, 64)       12352     
_________________________________________________________________
batch_normalization_15 (Batc (None, 1024, 6, 64)       256       
_________________________________________________________________
dropout_15 (Dropout)         (None, 1024, 6, 64)       0         
_________________________________________________________________
conv2d_16 (Conv2D)           (None, 1024, 2, 64)       12352     
_________________________________________________________________
batch_normalization_16 (Batc (None, 1024, 2, 64)       256       
_________________________________________________________________
dropout_16 (Dropout)         (None, 1024, 2, 64)       0         
_________________________________________________________________
conv2d_17 (Conv2D)           (None, 1024, 2, 1)        193       
=================================================================
Total params: 263,937
Trainable params: 261,889
Non-trainable params: 2,048
_________________________________________________________________
alpha set, Training count : 0.2 , 9920
Epoch 1/1

   8/9920 [..............................] - ETA: 3:07:32 - loss: 906.5567
  16/9920 [..............................] - ETA: 1:52:35 - loss: 829.8433
…
