…
memory_limit: 12071187252
locality {
  bus_id: 2
}
incarnation: 3678244793437977675
physical_device_desc: "device: 1, name: Tesla K80, pci bus id: 0000:84:00.0"
]
Training count:  8928
Validation count:  288
float64
Train data shape:  (8928, 1024, 64, 1)
Train labels shape:  (8928, 1024, 64, 1)
Validation data shape:  (288, 1024, 64, 1)
Validation labels shape:  (288, 1024, 64, 1)
_________________________________________________________________
Layer (type)                 Output Shape              Param #   
=================================================================
conv2d_1 (Conv2D)            (None, 1024, 64, 64)      640       
_________________________________________________________________
batch_normalization_1 (Batch (None, 1024, 64, 64)      256       
_________________________________________________________________
dropout_1 (Dropout)          (None, 1024, 64, 64)      0         
_________________________________________________________________
conv2d_2 (Conv2D)            (None, 1024, 64, 64)      36928     
_________________________________________________________________
batch_normalization_2 (Batch (None, 1024, 64, 64)      256       
_________________________________________________________________
dropout_2 (Dropout)          (None, 1024, 64, 64)      0         
_________________________________________________________________
conv2d_3 (Conv2D)            (None, 1024, 64, 64)      36928     
_________________________________________________________________
batch_normalization_3 (Batch (None, 1024, 64, 64)      256       
_________________________________________________________________
dropout_3 (Dropout)          (None, 1024, 64, 64)      0         
_________________________________________________________________
conv2d_4 (Conv2D)            (None, 1024, 64, 64)      36928     
_________________________________________________________________
batch_normalization_4 (Batch (None, 1024, 64, 64)      256       
_________________________________________________________________
dropout_4 (Dropout)          (None, 1024, 64, 64)      0         
_________________________________________________________________
conv2d_5 (Conv2D)            (None, 1024, 64, 64)      36928     
_________________________________________________________________
batch_normalization_5 (Batch (None, 1024, 64, 64)      256       
_________________________________________________________________
dropout_5 (Dropout)          (None, 1024, 64, 64)      0         
_________________________________________________________________
conv2d_6 (Conv2D)            (None, 1024, 64, 64)      36928     
_________________________________________________________________
batch_normalization_6 (Batch (None, 1024, 64, 64)      256       
_________________________________________________________________
dropout_6 (Dropout)          (None, 1024, 64, 64)      0         
_________________________________________________________________
conv2d_7 (Conv2D)            (None, 1024, 64, 64)      36928     
_________________________________________________________________
batch_normalization_7 (Batch (None, 1024, 64, 64)      256       
_________________________________________________________________
dropout_7 (Dropout)          (None, 1024, 64, 64)      0         
_________________________________________________________________
conv2d_8 (Conv2D)            (None, 1024, 64, 64)      36928     
_________________________________________________________________
batch_normalization_8 (Batch (None, 1024, 64, 64)      256       
_________________________________________________________________
dropout_8 (Dropout)          (None, 1024, 64, 64)      0         
_________________________________________________________________
conv2d_9 (Conv2D)            (None, 1024, 64, 64)      36928     
_________________________________________________________________
batch_normalization_9 (Batch (None, 1024, 64, 64)      256       
_________________________________________________________________
dropout_9 (Dropout)          (None, 1024, 64, 64)      0         
_________________________________________________________________
conv2d_10 (Conv2D)           (None, 1024, 64, 64)      36928     
_________________________________________________________________
batch_normalization_10 (Batc (None, 1024, 64, 64)      256       
_________________________________________________________________
dropout_10 (Dropout)         (None, 1024, 64, 64)      0         
_________________________________________________________________
conv2d_11 (Conv2D)           (None, 1024, 64, 64)      36928     
_________________________________________________________________
batch_normalization_11 (Batc (None, 1024, 64, 64)      256       
_________________________________________________________________
dropout_11 (Dropout)         (None, 1024, 64, 64)      0         
_________________________________________________________________
conv2d_12 (Conv2D)           (None, 1024, 64, 64)      36928     
_________________________________________________________________
batch_normalization_12 (Batc (None, 1024, 64, 64)      256       
_________________________________________________________________
dropout_12 (Dropout)         (None, 1024, 64, 64)      0         
_________________________________________________________________
conv2d_13 (Conv2D)           (None, 1024, 64, 64)      36928     
_________________________________________________________________
batch_normalization_13 (Batc (None, 1024, 64, 64)      256       
_________________________________________________________________
dropout_13 (Dropout)         (None, 1024, 64, 64)      0         
_________________________________________________________________
conv2d_14 (Conv2D)           (None, 1024, 64, 64)      36928     
_________________________________________________________________
batch_normalization_14 (Batc (None, 1024, 64, 64)      256       
_________________________________________________________________
dropout_14 (Dropout)         (None, 1024, 64, 64)      0         
_________________________________________________________________
conv2d_15 (Conv2D)           (None, 1024, 64, 64)      36928     
_________________________________________________________________
batch_normalization_15 (Batc (None, 1024, 64, 64)      256       
_________________________________________________________________
dropout_15 (Dropout)         (None, 1024, 64, 64)      0         
_________________________________________________________________
conv2d_16 (Conv2D)           (None, 1024, 64, 64)      36928     
_________________________________________________________________
batch_normalization_16 (Batc (None, 1024, 64, 64)      256       
_________________________________________________________________
dropout_16 (Dropout)         (None, 1024, 64, 64)      0         
_________________________________________________________________
conv2d_17 (Conv2D)           (None, 1024, 64, 1)       577       
=================================================================
Total params: 559,233
Trainable params: 557,185
Non-trainable params: 2,048
_________________________________________________________________
Train on 8928 samples, validate on 288 samples
Epoch 1/1

   8/8928 [..............................] - ETA: 2:58:11 - loss: 2.3848
  16/8928 [..............................] - ETA: 1:43:59 - loss: 2.1842
…
